data/ppo/ppo_s0/pyt_save/model.pt (torch, 165094 bytes, 20 tensors)

log_std f4 [8]
00000000: e485 08bf eab6 0ebf 049e 05bf 99dc 02bf
00000010: 02b9 01bf 2d6c 0bbf fdbc 04bf 0107 0bbf
-0.533293 -0.55747855 -0.5219424 -0.51117855 -0.50672925 -0.5446194 -0.51850873 -0.5430756

weight f4 [64, 103]
00000000: 1962 41ba f580 583d 3616 a6bd 48d6 9ebd
00000010: de71 1bbd a573 d83c aae2 ffba 6100 a03d
00000020: e143 0fbc 2697 d53c def0 f3bc fca9 9ebc
00000030: f4c8 c0bd d507 cabd 975e 26bd 0935 6f3b
00000040: be8d 1f3d ea29 723d 30ce 88bd b3bf 2fbd
00000050: 5397 123d 8991 a73d 3f1e a6bc 8301 973d
00000060: b11a 82bc 8ad2 2a3c 92b8 b63d 1c33 bbbd
00000070: 6613 7ebd b259 ccbc d851 1dbd f759 ae3d
00000080: b9cc 82bd c6df 59bd 83fb 8cbd 66fe bcbd
00000090: a397 6bbd 8576 ad3d f416 343d 039c 433d
000000a0: c6cd a93b 15ea 4ebd 1390 883c 546a bcbd
000000b0: 82cf 91bd 2e10 50bd 0ba4 7e3d 48a2 6c3d
000000c0: 95fd 32bd 1700 69bb 790f 813d 8d9c c83d
000000d0: 932d 203d e476 073c 144d 873d a0a2 6dbd
000000e0: db69 963c ff73 9cbd 93dc 8bbd 097d 50bd
000000f0: 2f9d 363d eb4e 223d 6d11 6fbd f7da f33c
00000100: 638f 5d3d bec2 4bbc 398e 763b 1f07 bb3c
00000110: da60 7a3d 46c3 c13d 2182 9bbd 62e7 13bd
00000120: 7f9d 1e3d c2c7 263d c8e0 983d 8cb1 be3b
00000130: 5c18 913d c782 b9bd 2d71 b33b 34b2 86bd
00000140: 2244 d5bd db99 b33d 90b3 b53d 5a80 f5bd
00000150: c2fb eb3b ee35 08bd c2e1 0e39 d4f6 15bd
00000160: 1c3c 8d3d a91d 62bd 66f3 3d3d 9ea4 ce3c
00000170: bd95 733d 20f7 ae3c a66c a6bd 7791 8fbd
00000180: 1667 413d 5230 a73c 0070 a1bd 97dc 80bd
00000190: 002e b93d 59fe 8f3d 7728 39bd c627 cbbc
000001a0: de3a c0bd 6422 e8ba 7dc5 d4bd 01a8 9bbd
000001b0: cfe6 b1bb 8263 723c 5e48 25bd 567b 6f3d
000001c0: d099 75bd 681a b73d 574a 8a3d b02b aabd
000001d0: 9066 e73b 4ab0 913b 9289 6b3c 5871 bf3c
000001e0: 6761 1e3d ba66 c13b 71ec 44bd 8af9 3e3d
000001f0: 7292 c1bd 0536 6fbd cb0f cabc 3298 44bd
00000200: 8730 0dbd 5b65 a5bd 25b3 abbc 518a ac3c
00000210: 7c76 83bd 3bb2 a5bb 9774 903d fcf4 25bc
00000220: 44f7 18bc f544 0bbc ca5b a33c 3c4f 803d
00000230: 6426 bf3d c126 803d 5b96 bf3d c381 e9bb
00000240: f646 b5bd 5055 3fbd 5067 893d fa70 27ba
00000250: 779a 48bd 62a3 9abd c6d9 bcbd 2751 aabd
00000260: e3b9 a3bc e854 5d3d a332 5a3d 329e c2bd
00000270: 2223 023d 27e8 9dbd 83a5 aabc 23a5 23bd
00000280: bd79 9bbc f87b 9ebc c514 b5bd e23c aebd
00000290: 619d 7cbc 9704 a73a 5957 37bd 4908 183d
000002a0: b0a0 b5bd dbe5 d9bb 7c76 b13d 1a9f 24bd
000002b0: cf38 b63d 7629 123d cd1c b6bd d359 7f3d
000002c0: 8933 523d 3cc3 9f3c 4537 913d f4db 9dbd
000002d0: 18f9 1f3d 519c af3c 89ff 213d 51c8 96ba
000002e0: a26f 2e3d c844 253d 0acc 943b 6b01 f63b
000002f0: 2d6e b4bd d56e 8b3d 0025 9c3d a8ed 4c3d
00000300: ec22 a0bd c747 323c 7e73 36bd 2d20 8ebc
00000310: b789 86bd e0c9 453d c560 abbd 169b 5d3b
00000320: dc5b 193d e139 8d3d a7aa cbbd 604b 70bd
00000330: 1ae9 32bd 3497 9f3d a913 11bd 5136 aa3d
00000340: 07f1 113d 0d6a 94bb 1c47 40ba a090 9fbc
00000350: 5d8c 4a3c cf50 b8bc d37d 35ba 47fb 4d3c
00000360: 6ed8 9dbd e088 53bd c7f2 a23d 381f 9cbd
00000370: b4d7 e7bb b69f c73d bfca 113d 85d4 363b
00000380: c0e0 aebd 15ee 473d 29bc 8fbd 4b21 e5bc
00000390: 4d69 07bd 1e11 6fbc 5844 8d3a 4171 a63d
000003a0: 0689 493c 2abf b43d afe1 763d e227 7fbd
000003b0: 1d03 353d fea5 8ebd 4d0d 2bbd ea97 313d
000003c0: 3443 053d 8164 973d 1cec 01bd 5c66 2539
000003d0: 31c7 4f3d a027 c3bd eae4 913d 82de a6bd
000003e0: efff b13a 043c 89bc 778f 54bd 425f 553c
000003f0: 51de a63d 7bf4 ebbc 0a9c 6fbd 7a43 15bd
-0.00073769834 0.052857358 -0.08109705 -0.07755715 -0.03795039 0.026422331 -0.0019522507 0.07812572
-0.008744211 0.02607305 -0.02977794 -0.019368164 -0.09413329 -0.09864775 -0.04061755 0.0036500117
0.038953535 0.059122004 -0.06679952 -0.042907428 0.035788845 0.081820555 -0.020278094 0.07373335
-0.015881868 0.010426173 0.08921923 -0.09140608 -0.06203022 -0.024945114 -0.03840813 0.08513253
-0.06386704 -0.053191923 -0.068839096 -0.0922821 -0.05751766 0.084698714 0.043967202 0.047756206
0.005182001 -0.050516207 0.016670262 -0.09199968 -0.07119657 -0.05079668 0.062168162 0.05777195
-0.043698866 -0.0035553032 0.06301779 0.09795485 0.039105963 0.008268092 0.06606498 -0.05801642
0.018361023 -0.07639312 -0.068291806 -0.050900493 0.044583496 0.039626043 -0.058366228 0.029767497
0.054091822 -0.012436567 0.0037621392 0.022830544 0.06112752 0.094610736 -0.075931795 -0.036109336
0.03872442 0.040717848 0.074647486 0.005819505 0.07084724 -0.09058147 0.005476138 -0.06576958
-0.10413386 0.0876958 0.088721395 -0.11987372 0.0072016427 -0.033254556 0.00013626277 -0.036612347
0.068962306 -0.055204067 0.0463747 0.02522498 0.059468973 0.021358073 -0.08126192 -0.07010167
0.04721745 0.020408783 -0.078826904 -0.06292074 0.09041977 0.07030935 -0.045204606 -0.024799239
-0.09386228 -0.0017710445 -0.103892304 -0.076004036 -0.005429126 0.014794232 -0.040352218 0.05846723
-0.05996114 0.089405835 0.067524604 -0.08309114 0.007061787 0.004446064 0.014376061 0.023369476
0.03866711 0.0059021385 -0.04807705 0.046624698 -0.0945176 -0.058401126 -0.024665734 -0.047996707
-0.034470107 -0.08075973 -0.020959446 0.021062048 -0.064190835 -0.005056647 0.07053488 -0.01012921
-0.0093362965 -0.008500327 0.01994123 0.06265113 0.09333494 0.06257392 0.0935485 -0.0071260645
-0.08851425 -0.04671222 0.067091584 -0.0006387379 -0.048975434 -0.07550694 -0.092212245 -0.0831626
-0.019986099 0.05403605 0.053270947 -0.095028296 0.031771787 -0.07710295 -0.020830875 -0.03995241
-0.018978948 -0.019346222 -0.08841852 -0.08507706 -0.015418381 0.0012742457 -0.044761036 0.037117276
-0.08868539 -0.0066497154 0.08665177 -0.040190794 0.08897554 0.03568407 -0.08892212 0.062341522
0.05131868 0.019502275 0.0709062 -0.07707968 0.039055914 0.021436842 0.039550338 -0.0011503791
0.04258693 0.040348798 0.004540925 0.0075074933 -0.08810077 0.06808249 0.07624245 0.050031334
-0.07819161 0.010881371 -0.044543736 -0.017349327 -0.06569236 0.048288226 -0.08368067 0.0033814362
0.03744112 0.06895805 -0.09944659 -0.058665633 -0.043679334 0.077925116 -0.03541914 0.08311141
0.035630252 -0.004529244 -0.0007334815 -0.019478142 0.012362567 -0.02249947 -0.00069233513 0.012572116
-0.07707296 -0.051644206 0.07956462 -0.07623142 -0.0070752744 0.09747259 0.035593744 0.0027897668
-0.085389614 0.048811037 -0.070183106 -0.027969977 -0.033059407 -0.014591483 0.0010777814 0.0812707
0.012300735 0.08825524 0.060273822 -0.062293895 0.044192422 -0.06965254 -0.04176073 0.043357767
0.032534793 0.073922165 -0.031719312 0.00015773758 0.050727073 -0.09529042 0.0712374 -0.08147909
0.0013580302 -0.01675225 -0.05189463 0.0130231995 0.08147872 -0.0288031 -0.05849842 -0.036441304

bias f4 [64]
00000000: 29f5 54bd c850 193d d481 8c3c 75e7 92bd
00000010: 74db 8b3d accc abbc bd61 d03d 9b2c 81bd
00000020: 62a5 803d 1769 c5bc daf0 9bbd 336d db3c
00000030: 5102 e9bc e112 6bb9 2830 52bc 4566 49bd
00000040: 97f5 1bbd 2bd8 793d ff72 e0bc 1834 643d
00000050: 1196 423d 8758 913c 8424 0e3d 393e 0dbd
00000060: c121 aebd b1ed b7bd bfff adbd ca7a b1bd
00000070: d293 833c 3886 aa3c 1914 9bbd c1c2 ac3c
00000080: b3c4 913d 76ec a43d a737 dc3c 9f79 0a3b
00000090: 1e79 873c b126 e8bd 1df6 94bc 04b3 3a3d
000000a0: 2483 b83d b498 3bbc 2eb1 d53b dbff 423d
000000b0: f686 183d 0025 e2ba abaa c63d 0f83 ac3d
000000c0: 9aa4 62bd 42cd b63d 2921 34bc 60ba cf3c
000000d0: 834f fd3d fb68 15bc 89c9 2e3d aa8f efba
000000e0: fc69 5abd 053b 533c 46b3 7b3d e694 8a3d
000000f0: 41a2 37bd 3c51 6d3d 8c0f 453c 270e 003e
-0.051991615 0.037430555 0.01715175 -0.07173053 0.06828967 -0.020971619 0.10174892 -0.06307336
0.06281544 -0.024097962 -0.07614298 0.026785469 -0.028443487 -0.0002241838 -0.012828864 -0.049169797
-0.03807601 0.06099717 -0.027398584 0.055713743 0.047506396 0.017742408 0.034702793 -0.03448317
-0.08502532 -0.08980883 -0.08496045 -0.08665998 0.016061697 0.020815954 -0.07572193 0.02108896
0.071175955 0.08052914 0.026882006 0.002112962 0.016537245 -0.11335505 -0.018183762 0.04558088
0.09009388 -0.0114499815 0.0065213656 0.047607284 0.037238084 -0.0017253458 0.09700521 0.08423435
-0.055332758 0.089258686 -0.010994234 0.025357425 0.12368681 -0.009119268 0.042672668 -0.0018277068
-0.05332373 0.012892489 0.061450265 0.067666814 -0.04483247 0.0579388 0.012027632 0.12505399

weight f4 [64, 64]
00000000: 16f1 fe3d d6e0 38bd 9e38 ba3d 4c8f 02bd
00000010: 043f 793c 587e 2ebc 4d44 09bc caf5 26bc
00000020: 7eda 04be 4c7b 873c e20f d93d d132 183d
00000030: 08cb 02be dabc ec3c 6e2f acbc e222 133d
00000040: e6c3 d2bd 8e21 7b3c cd15 cabd cff1 843c
00000050: 535b ae3d e733 b73d 65c5 26bd d46d e93d
00000060: f1d1 68bc ba06 a4bd 73cd 853d 4268 3abc
00000070: 72e2 b6bd dc73 af3d e537 f13d 6c4d 733d
00000080: d839 d3bc 6dd0 05be ba4d eb3d f7c1 8ebd
00000090: b738 863b ee52 efbd 5824 7b3d 8be2 8f3c
000000a0: ed23 023e 08fc 4a3d 045d 05be c6e2 963d
000000b0: ba21 07be 917f 68bd fc47 6c3d 59ff 94bd
000000c0: f76f 123d ed42 0b3c 5893 143c 6ef9 90bd
000000d0: 2073 ab3d d340 863c 19cb 783d ab8c d63b
000000e0: edd1 9fbd 7a77 80bd a74c a33d aa12 d7bd
000000f0: 56fa 63bd f4e8 f3bd eea2 9bbd 7f65 753c
00000100: 506a b8bb 55b3 433d 3164 f23d adf6 463d
00000110: 26a9 003e a680 eebb a32d 023e 3793 b03c
00000120: 29fe 9dbb 2029 db3c 5d04 cebd 48ab b33d
00000130: 5c9f e43d f895 f2bd 44f3 75bd e229 fa3d
00000140: bca9 033d 2021 0dbd 1550 39bd 91cd edbc
00000150: 802a 7ebb 372b e73d 9fb4 94bd dcbb a93b
00000160: f760 253d a28f 99bd 4833 1abb 9768 8ebc
00000170: 9366 ae3d 056c e53d 4e5f 42bc 1252 acbd
00000180: b611 8cbd 7c85 9dbd b87c f33d c9a3 d73d
00000190: 01b9 6b3c d5c7 ccbd abd0 113d e482 debc
000001a0: f715 bc3d 3591 763d 510f ea3d a4b4 843b
000001b0: 26c9 0bb8 9c80 373c fc24 c23d 456d c13d
000001c0: 4da1 3a3d 7a7c 4cbd 5f05 3dbd b36f e73d
000001d0: 96ff 71bd 6730 9a3c baab 523d ef84 773d
000001e0: c5dc 9abd 717f b8bc 2cbf 72bc 9259 c83b
000001f0: c710 d9bd 12e9 723d 65c1 abbd bf49 16bd
00000200: 386e c13c 1ec5 bd3d 35e6 49bd badf 8ebd
00000210: 9b10 8dbd 8255 033c 3dc0 a5bd fdd7 cb3c
00000220: cc10 983d 40fe 023e 9f27 bb3d 82a2 08bd
00000230: ef32 203d c540 e13c b1e0 453d ede4 7dbd
00000240: 9a30 e33d ff9d 8cbc 6044 593d c0b5 c13d
00000250: 3d52 2ebd cfb5 bd3d c1ae 15bd bbaf a13d
00000260: 9261 91bc c8b0 b5bd 261d 38bd 1b8b 063d
00000270: eae9 c73d bea5 e7bd 5b10 7dbd 01aa 743d
00000280: 872f a1bd 9dbe 863c 7961 a4bd b4f5 913c
00000290: 7798 5dbd 7ff6 373c 5ce2 6e3d 37e5 873c
000002a0: 0126 e3bd 9c59 be3d c067 a33d 1adf e4bd
000002b0: 5508 b63d 1133 dbbd ab3f 1f3d c837 4dbc
000002c0: 2337 f13b fedb 50bd 359e e93d 83e5 8f3c
000002d0: 4300 c3bb 8fa8 faba aeae b03d 5be1 093e
000002e0: a9ed a0bd 3a7b f8bd c9df c9bd 7edf 86bd
000002f0: 80d9 e3bd facc 37bd 7df8 84bd 1386 2c3c
00000300: 570f 033d 6b4a 8e3d 68d2 ddbd d5cd d0bd
00000310: c8e3 5abd ace0 b2bd 8e3a 3dbc 8b28 d6bd
00000320: a710 993b 07de 22bb 2d31 b5bd b6aa 53bd
00000330: a034 073d f81d e3bc 8baa 06be 27e2 cc3d
00000340: f343 19bd a3c9 ea3a b660 bd3d 4cfe 9b3d
00000350: 198d f5bd a48c e33d 9034 61bd 22cf bf3c
00000360: b28d 1f3d 8a85 693d 6939 aa3d d70c 2bbd
00000370: e78d ca3d 90b1 8e3d 7699 b4bd 423d 0dbd
00000380: d367 d93d c901 c9bd 5d33 f4bd a592 9e3d
00000390: 4573 3a3d a884 1d3b 6e44 b83d 5718 053c
000003a0: dbad 0e3e 42b6 c8bd de50 c8bd 21c3 febc
000003b0: 9c01 fa3d 7a1b dbbd f164 6c3d 5f3a 7c3c
000003c0: 31e9 79bd 65aa cfbd 9220 783d 45ef 3e3d
000003d0: 32c1 56bc 1daf 8c3d 3804 a03d 3c7c d8bd
000003e0: f1a9 f3bd d550 21bd 39f3 00bd 4a3c 32bd
000003f0: 2d49 a43c 51d8 e0bd fa66 df3d 5b13 dabc
0.12448327 -0.045136295 0.0909283 -0.03187494 0.015212778 -0.01065024 -0.008378101 -0.010190437
-0.12973973 0.016538285 0.105987325 0.037157837 -0.12772763 0.028898645 -0.02101871 0.03592194
-0.10291271 0.015327824 -0.098674394 0.016228585 0.085135125 0.089454465 -0.040715594 0.11397901
-0.01421021 -0.080090955 0.06533327 -0.011377396 -0.0892991 0.0856702 0.11778239 0.059400007
-0.025784418 -0.1306779 0.114894345 -0.069705896 0.0040961164 -0.116857395 0.061313957 0.017564079
0.12709017 0.049556762 -0.13023764 0.07367472 -0.1319646 -0.05676228 0.057685837 -0.07275266
0.03575131 0.008499843 0.009068333 -0.07078825 0.08371568 0.016388332 0.060740564 0.0065475306
-0.07803712 -0.06272788 0.07973605 -0.10501607 -0.05565866 -0.11909667 -0.07599436 0.014977812
-0.005627908 0.047778446 0.11835516 0.048575092 0.12564525 -0.0072785197 0.12712722 0.021554573
-0.004821558 0.026753008 -0.10059426 0.08772904 0.11163208 -0.118450105 -0.06004645 0.1221502
0.032144293 -0.03445542 -0.045242388 -0.029028686 -0.0038782656 0.112875395 -0.07261013 0.0051798653
0.040375676 -0.07498099 -0.00235291 -0.017383857 0.08515658 0.11202244 -0.011863543 -0.08414091
-0.068393156 -0.07691476 0.118890226 0.105292864 0.01438737 -0.099990524 0.035599392 -0.027162023
0.09183877 0.060197074 0.114287026 0.0040498544 -3.3327517e-05 0.011200096 0.094797105 0.0944467
0.045563985 -0.049923398 -0.0461477 0.11300602 -0.059081636 0.018821908 0.051433302 0.06042951
-0.0756164 -0.022521706 -0.014816087 0.0061141932 -0.10598903 0.059304304 -0.083864965 -0.036691424
0.023612127 0.09266113 -0.04929181 -0.06976266 -0.06887933 0.008015992 -0.08093307 0.024883265
0.07425079 0.12792301 0.091384165 -0.033358105 0.039111074 0.027496705 0.048309986 -0.0619859
0.110932544 -0.017165182 0.053043723 0.09458494 -0.042558897 0.09263193 -0.03654361 0.07894846
-0.01774672 -0.08871609 -0.044949673 0.032847505 0.097614124 -0.1131091 -0.061783176 0.05973244
-0.07870393 0.016448313 -0.08026404 0.017817356 -0.05410048 0.011228203 0.058321342 0.01658879
-0.11091233 0.092944354 0.07978773 -0.11175366 0.08888308 -0.107030995 0.038879078 -0.012525506
0.007361309 -0.05099105 0.11407129 0.017565494 -0.005950959 -0.0019123721 0.086270675 0.13464873
-0.0785783 -0.121328786 -0.09857137 -0.065855965 -0.11125469 -0.044873215 -0.06492708 0.010530013
0.03199705 0.06947788 -0.108311474 -0.10195509 -0.053439885 -0.08734259 -0.011549605 -0.10456952
0.0046711746 -0.0024851577 -0.0884727 -0.051676475 0.03300917 -0.027724251 -0.13150994 0.10004073
-0.037418317 0.0017912876 0.09246962 0.07616863 -0.11989803 0.111108094 -0.054981768 0.023414198
0.03895349 0.05701212 0.08311731 -0.041760292 0.09890347 0.06967461 -0.08818333 -0.034482248
0.10615506 -0.098147936 -0.11923859 0.07742814 0.045520086 0.0024035368 0.08997427 0.008123479
0.13933508 -0.09800388 -0.09781049 -0.031098904 0.12207338 -0.106986 0.057713453 0.015394776
-0.061013404 -0.10139922 0.060577936 0.046614904 -0.013107585 0.06869338 0.07813305 -0.10570571
-0.11897648 -0.039383728 -0.031481955 -0.043514527 0.020054424 -0.10978759 0.10908313 -0.026620558

bias f4 [64]
00000000: 9751 8cbc 8537 72bd ed70 35bb 27ac 5a3d
00000010: 2f47 f3bd 7b46 463d fc71 383c ac2a c3bd
00000020: 377a e13d 27da b13d 482f 403d 2146 62bd
00000030: eb57 433d fa6a 2f3d fc43 febc e225 03bd
00000040: 248f e73c 7de5 dabd 5350 aa3d 82c9 0c3d
00000050: d5b6 82bd 0db9 d23c 6e4b 49bd 230d 6ebc
00000060: 9044 b4bd 616d cf3c 6926 923d 0a3e 4fbd
00000070: 579d b13d 701c 9f3d e43b e7bd 5afc 7ebd
00000080: 9043 913c 7ff5 b8bd 73c4 9d3d d74b eb3d
00000090: b831 89bd 0e98 633c 9718 8a3a 8427 e33d
000000a0: 071a febd 8db2 063d 9e30 bcbd 96fc d2bd
000000b0: 4a46 ee3d ad39 c63d a643 dbbd 07ea 8b3d
000000c0: f2da 8dbd 0763 063e 9973 8b3c 8f8a 84bd
000000d0: 1fa7 38bc 534a bdbb 5352 423c 116f 96bd
000000e0: 8ae7 663d 06ca b3bd 15b2 9e3c 3b71 9cbd
000000f0: b44b 83bd 4a34 1e3d 98a9 0b3d fd63 e3bd
-0.017128749 -0.05913498 -0.0027685717 0.053386834 -0.118788116 0.04840706 0.011257645 -0.095296234
0.11009639 0.086841874 0.04692009 -0.05524266 0.047691267 0.04282663 -0.031038277 -0.03201855
0.028266497 -0.10688303 0.08316102 0.03437186 -0.06382529 0.025723005 -0.0491442 -0.014529499
-0.0880214 0.02532071 0.071362324 -0.050596274 0.08672588 0.07769096 -0.1129072 -0.06225238
0.017732412 -0.090312 0.07703485 0.11489075 -0.06698936 0.013891233 0.0010535893 0.110915214
-0.12407308 0.032885123 -0.091889605 -0.10302083 0.116345 0.096789695 -0.10706262 0.068317465
-0.06926526 0.13123713 0.017022895 -0.064717405 -0.0112703135 -0.0057766824 0.011860448 -0.07345403
0.056373157 -0.08778767 0.019372026 -0.076387845 -0.064109236 0.038624085 0.034097284 -0.111030556

weight f4 [64, 64]
00000000: f688 7b3d a8fd 043d f526 4dbd cf80 8a3c
00000010: 51b4 71bd 5146 dbbd d574 9dbc 4a71 853d
00000020: 498c 4cbb a182 acbd 116c de3d 43b8 21bc
00000030: 49d9 f3bd fc3c 373d 015a d1bd 9c27 ac3d
00000040: 9eb8 123d 132d 153d 2e66 ffbd 9b64 853c
00000050: ea85 e8bc bb6f a3bc d80a 733d 5652 e3bd
00000060: 1b25 1cbd 2ac9 01be 93a1 25bd bf8f 5c3d
00000070: e162 8e3d f3cf 963c c2c8 87bd 3b30 99bc
00000080: ed1e 933d ab32 c2bd 052a 05be 4ee7 8ebc
00000090: 6b6c 53bd 4469 ab3d 5ab4 493d d668 df3c
000000a0: 0650 4c3d 654a adbd 11f5 86bd 7f96 dcbd
000000b0: 0c3a a7bc ebf9 9dbd 73bf 0fbc 32cb 0bbd
000000c0: 8a77 7a3c dc0f b0bd c0ff 71bd 14ba c23d
000000d0: a4c9 df3d e1ff 473d 6219 38bd 3563 c4bd
000000e0: c935 c03d 1539 f83b 8bc4 a7bb 208e 0cbd
000000f0: a6b5 f0bc 5392 943d 7276 c1bd 908a 21bc
00000100: 34a3 d83d a224 53bc f21e 983d fbf5 503d
00000110: 2e0c dfbd 2ad9 a13b a37e 7c3b 5aa7 85bd
00000120: 21a4 83bd d0cd b13d 8a23 cc3d 9f7a de3d
00000130: 5533 e93d 6e5b 193d 46c5 46bd d443 913d
00000140: 54cd 67bd c7ee df3d 1558 e93d 4410 ca3d
00000150: 010c a63d 4435 3cbd cf22 36bd f254 5ebd
00000160: 0e27 b6bd a839 f13d be02 8bbd a28f a0ba
00000170: e250 e8bc d63a d13c 6b5d 01be 52a1 263c
00000180: c380 e33d 86d0 6fbd b2bc 963c 8302 743d
00000190: 6d51 d03d a029 ecbd 3a11 82bd 0481 a0bd
000001a0: 9f53 c9bd 8b4a aebd 155a 513d f9c6 ab3d
000001b0: c908 8f3c 19f4 193d 4f18 b5bc e460 e7bd
000001c0: 5062 ea3d 344b 893d 4f61 d8bd 8f56 b43c
000001d0: 1827 973d 5887 ce3d 08d8 c23d 2b74 e63d
000001e0: 6892 cd3d 528f 0fbd 2a3c 803d 6715 8d3d
000001f0: 2406 01be 4bdd 523d 8ab5 96bd c8b2 ef3d
00000200: 2859 953d c136 da3d 0986 eb3d dd8b 073e
00000210: 0f19 0bbe 7a0d ddbd 03ac cbbd 9711 b23d
00000220: a7a2 8ebd 725d 973d a42e e33c 75b3 b63d
00000230: bc25 b8bd 684d bb3c cf8d c2bd 070e f2bd
00000240: af68 0bbe d372 c53d ee47 833a 30ce 463c
00000250: 46d6 f63d 13bd 603d e9ec 193d 7a19 bbbd
00000260: 1fea 643d 5167 e63d a2c6 04be c3f7 5abc
00000270: de27 c4bd 4d96 19bd e7c4 f63c 2945 ebbd
00000280: 782e 97bd 615e 5d3d dbe3 f83d 452f 02bd
00000290: c499 a83d a257 e3bd 173d 92bd 2465 f53d
000002a0: 92e4 a4bc 9919 933d 16db 91bd 0c1e 363d
000002b0: 8b10 0cbd 96a2 e4bc 9d08 2c3d 6b4a b73b
000002c0: 9735 a23d 3998 1e3c 22d4 b5bc cf9d de3d
000002d0: 3f52 933c 2b9a 09be 28f1 cdbd a247 6b3d
000002e0: 4e3c 9e3d 3b9f 2fbd 0f08 d63d 16e6 973d
000002f0: 5cfc 353d c19b 3bbd 9d26 513d 58b0 20bd
00000300: 73f8 06be bb7b 39bd 5fb4 df3c 5bb1 9fbd
00000310: f1f1 463d 6511 003e 6008 7f3d bd59 e03d
00000320: 572f 53bc d94e 893a f1da 0fbd 9cfc 223e
00000330: bd5c dbbd e7ce 5b3d 074d 893d 1515 033e
00000340: 400e 523c 0a5d 78bd 66d0 053e 3ece cdbd
00000350: 9151 da3a 8b5e 8abd 9cb0 dc3d be52 923d
00000360: 6a53 55bd 0421 19bd 2119 ea3b a384 06be
00000370: 3b00 023e 7502 e83c 0a89 61bc de87 f63d
00000380: 1053 953d 85bd 8a3d 5963 273d d88f 58bd
00000390: 7f66 dfbd 2c9e 5f3d ed52 8f3b bcfc 5e3d
000003a0: 5a8f 9cbd d0f5 d13c d437 d93d 900d 313d
000003b0: 36c8 b9bd 16bd 5e3c 75bf 113e 1c47 f9bb
000003c0: 4916 b9bc 5554 803d add9 ae3d 94e1 883d
000003d0: c419 a23c 27fe 013e fbeb 103e 86d5 debd
000003e0: 5ab1 d63d 41fc d03d 8b67 593d 4760 273d
000003f0: 2ce2 8c3d d08a 973d dfaa dc3c a721 c73d
0.061409913 0.032468468 -0.05008598 0.016907124 -0.059009854 -0.10706771 -0.019220749 0.06515749
-0.0031211546 -0.08423353 0.10860456 -0.009870592 -0.11906678 0.044735894 -0.10222245 0.084059924
0.035820596 0.03641994 -0.12470661 0.016283324 -0.028384168 -0.019950738 0.059336513 -0.11099689
-0.038121324 -0.12674394 -0.040437292 0.053848024 0.069524534 0.018409705 -0.066300884 -0.018699756
0.07183633 -0.094823204 -0.1300431 -0.017444279 -0.051617067 0.08369687 0.049244262 0.02727167
0.049881004 -0.08461455 -0.065897115 -0.10770892 -0.020413421 -0.07713684 -0.008773672 -0.03412933
0.015287289 -0.08596775 -0.059081793 0.09508148 0.10927132 0.04882801 -0.044946082 -0.09589235
0.09385259 0.007575164 -0.0051198653 -0.03431523 -0.029383492 0.07254472 -0.0944642 -0.009859696
0.105780035 -0.012887152 0.07427777 0.051015835 -0.10890995 0.004939218 0.003852763 -0.065260604
-0.064277895 0.08681834 0.09967716 0.10863232 0.11386744 0.03744071 -0.04852798 0.07093015
-0.0565923 0.10934215 0.113937534 0.09866384 0.08107758 -0.045949236 -0.04446679 -0.05428023
-0.08894168 0.11778575 -0.067876324 -0.0012249837 -0.02835888 0.02554075 -0.12633292 0.010170298
0.11108544 -0.058548473 0.018400524 0.059572708 0.10171781 -0.11531377 -0.06350942 -0.07837108
-0.098304026 -0.08510312 0.0511113 0.083875604 0.017460244 0.037586305 -0.022106318 -0.11297777
0.11444533 0.06703797 -0.10565435 0.02201393 0.073805034 0.100844085 0.09513861 0.11252626
0.100376904 -0.03504879 0.062614754 0.06888848 -0.12599999 0.051480573 -0.073588446 0.11704022
0.07292396 0.10654975 0.115001746 0.13236947 -0.13583778 -0.10793586 -0.09944918 0.08694761
-0.06964617 0.0739087 0.0277322 0.089209475 -0.08991572 0.022864059 -0.09499704 -0.11819082
-0.13614152 0.096410416 0.0010015944 0.01213412 0.12052588 0.054867815 0.03757945 -0.09135719
0.055887338 0.11250175 -0.12966397 -0.013364735 -0.095779166 -0.037496854 0.030123187 -0.11487801
-0.0738191 0.054045085 0.12152835 -0.03178336 0.082324535 -0.11100699 -0.07140558 0.11982182
-0.020128522 0.07182617 -0.071218655 0.04446225 -0.034195464 -0.027909558 0.0420004 0.005593588
0.07920378 0.009679847 -0.02219588 0.10869943 0.017983554 -0.13437717 -0.100557625 0.05744136
0.07726346 -0.042876463 0.10450756 0.07416932 0.04443012 -0.045802835 0.051062215 -0.039230675
-0.13180713 -0.045284014 0.027307687 -0.077975 0.048570577 0.12506635 0.062263846 0.10954616
-0.012889705 0.0010475769 -0.03512091 0.15916675 -0.10711048 0.053664114 0.06704145 0.12801011
0.01282078 -0.060635604 0.13067779 -0.10049103 0.0016656389 -0.06756314 0.10775873 0.07144688
-0.052081503 -0.037385 0.007144109 -0.13136534 0.126954 0.028321484 -0.013765583 0.12037633
0.072912335 0.06774429 0.04086623 -0.052871555 -0.109082215 0.054594204 0.004373899 0.054440245
-0.0764453 0.025629908 0.106063515 0.043225825 -0.0907139 0.013594886 0.14233191 -0.007607354
-0.022593634 0.06266085 0.08537612 0.066836506 0.019787677 0.12694608 0.1415252 -0.1088057
0.10483046 0.102043636 0.053077262 0.0408633 0.06879076 0.07399523 0.026936946 0.097232156

bias f4 [64]
00000000: b29a 02bd ed8a 083d f01a 6bbd 723f dcbd
00000010: 5ad3 cb3b 9f94 173d 5a10 3ebd 8835 4c3d
00000020: 72cd cbbd 7e6d 93bd 3436 b5bd 1863 863b
00000030: a4c2 9c3d ae17 963d 06c8 d83d b55c f03d
00000040: cecf eebd 368b 493d 531d a6bd a510 cbbd
00000050: b756 f93d d644 bfbd c3ca e7bd 9475 ddbd
00000060: 543a 8e3d 23c0 abbd a60d 603d 2816 e0bd
00000070: d6fa 003d 6b61 803d 67ef b0bd f7fc 65bc
00000080: 0d09 a1bd c90a e33d 33ed c1bc 25dd aabd
00000090: 5dfd 2bbc 0e5e 743d 40c6 bfbd 9d6b 9c3d
000000a0: 9da2 073c dc9a ebbd 7aa1 b53d 8bc9 0b3d
000000b0: 50b4 823d 4b18 bdbb 5f60 56bd 6863 6ebd
000000c0: 0ac9 573d de1f cf3d 4671 4d3d d3be 7cbd
000000d0: b1af f23d b5c6 763c d551 a2bd 11e8 933d
000000e0: 5f3a 9d3d 4c18 e2bc 1c5c 5ebd 4d0a b3bd
000000f0: ba88 af3d ec7e ed3d 52fa e2bc 76e7 4c3d
-0.03188581 0.033335615 -0.057398736 -0.10754289 0.0062202634 0.03700697 -0.046402313 0.04985574
-0.09951295 -0.07198618 -0.08848229 0.0041011684 0.07654312 0.07328735 0.105850264 0.117364325
-0.11660729 0.049205028 -0.08111062 -0.09915284 0.12174743 -0.09339301 -0.113179706 -0.10813442
0.06944719 -0.083862565 0.054700516 -0.10941726 0.031489216 0.06268581 -0.086394124 -0.014037362
-0.078630544 0.110860415 -0.023672676 -0.08342961 -0.010497418 0.05966001 -0.09363985 0.07637713
0.008278516 -0.115041465 0.0886869 0.034127753 0.06382048 -0.005770718 -0.052338 -0.05820027
0.05268196 0.101135 0.050156854 -0.06170542 0.11849917 0.015062024 -0.079257645 0.072219975
0.07677149 -0.027599476 -0.05428706 -0.08742199 0.085710004 0.11596474 -0.027707253 0.050025426

weight f4 [64, 64]
00000000: 70ed ab3d 257a 533d 2119 c4bd 1476 983d
00000010: 797d f6bc be4a 00be fa96 17bd 643c c5bc
00000020: a4fe b53d c557 eebd 470b cebb 0485 adbd
00000030: f3db a73d 85ac c3bd a957 89bd 9da4 15bd
00000040: 0b33 94bd 3385 16bd 2e32 d6bd ceb8 87bd
00000050: e6ce 7ab8 6d6c bd3d 6887 c93c 7e09 c33d
00000060: c682 8cbd eaf6 90bc 9bb8 603d 3ef2 7dbd
00000070: ca82 f2bd be2a f7bd ee24 e2bd 9f4f e73c
00000080: 8396 09be fb6c 1c3c 806f 0bbe 424a 27bd
00000090: 190a 16bd eef2 00be c7f8 143e 68a8 053d
000000a0: cba5 8ebd 8afa e93d 3b9e be3d 1593 1fbc
000000b0: b171 7ebc 48c2 c63d 24b0 d6bc c11f cb3c
000000c0: d190 8fbc 4786 5a3d 46c0 663d d260 043e
000000d0: 606c b3bd 0068 4f34 c00f 953c 2e6d 1c3d
000000e0: 21a8 a53d 3f67 d63d 4f79 cdbd f563 083d
000000f0: 6436 a83b 45d6 75bc d58d ddbd dde9 9a3d
00000100: 3bf1 453d 766a e0bd 5b5f f83d 7b3b bd3d
00000110: 89ac f9bd 20a9 3bbd f573 c9bd c8b6 0e39
00000120: ac09 f9bb 20c9 f1bd 25ba a5bd e101 5dbc
00000130: f098 f33d def1 703d 5387 de3d 31e4 a63b
00000140: 6059 02be 0861 883d 6fcd 07bd 8d4f ae3c
00000150: 1cba 113e 7c01 aebd 533f 8b3b 4d6b dcbd
00000160: dc88 75bd c06a 25bc e9ed 0f3d b561 ab3d
00000170: 49b5 fc3d ecd4 c63d 674b 153c 9956 b63d
00000180: 956c 2abd aee3 58bd 4f36 6bbd fec5 86bd
00000190: 9485 a2bc a0ab dfbc 6eb8 97bd 1735 d83c
000001a0: f791 313d f41c 82bd 6b48 11be ece9 d5bc
000001b0: f513 bdbb 1e8d 23bb 810a 653d 9393 4bbd
000001c0: b191 53bd 785a 85bd 5edd 2ebc ad7e c2bd
000001d0: e672 f13d 4030 fabd 8e28 5b3d 691e 2b3c
000001e0: 767a 263c 1a9e 40bd fb07 923d 3f75 033d
000001f0: e580 04bd adc6 e63d 63b8 f9bd ff27 a0bb
00000200: 9fde f0bd 358f 923d a010 cdbd f880 a13c
00000210: 0daa bbbd 2210 ab3d 2738 b2bc eeed 263d
00000220: b584 f23d d4ea cb3c cd93 7c3d f76c 963d
00000230: 6fa2 6dbc 880d 32bc 1902 b8bd 5bbf d8bd
00000240: 7335 403d effc f03c caf7 383b 6d3a db3d
00000250: a2bd d4bd 725e be3d 464e 4b3d edca c0bd
00000260: b932 86ba 3d5f 663d 4909 f7bd 4f6d 483d
00000270: ec7d 2ebd 9b57 27bd fdf3 ffbc b541 683d
00000280: ebc6 6d3d dd0b f3bd ad35 76bc f4d8 ffbd
00000290: 954d 753d 6a2e dfbb 9914 15bc 0e7b d8bd
000002a0: 69e6 4d3d 14b1 b7bd d5d4 33bd 3b6f dfbd
000002b0: 39f2 b93d 55d5 e33b 780d fbbb 9523 ce3d
000002c0: 2d42 c33c 8203 003e b8bd a8bd 55b5 303b
000002d0: cca7 91bd 19e1 693d bf99 dabd bf15 46bd
000002e0: 315b 033d a6bc f73d a655 6cbd 9185 dbbd
000002f0: 1e48 86bd 7950 56bd 0524 50bd dc76 d13d
00000300: 9867 13bc 98f7 37bd ef45 ea3c 6886 0cbe
00000310: 7f61 36bd de1d e7bd e603 de3d 9210 c43d
00000320: 4128 8dbd a91d d23c 25b7 d3ba c6ef 4cbd
00000330: 9181 f63d 6177 013e 6f35 ae3d f87f eabd
00000340: a3b4 2f3d 842d 883d 19b7 5e3d fce4 a3bd
00000350: 9a84 1b3d c189 6abd 5be9 6b3c bd77 34bd
00000360: 39b5 3b3d ae79 a2bd 4b27 b63d 285d 17bd
00000370: 69e9 e0bc b915 323d efc2 913d d8bc 5c3d
00000380: 25cb 4d3d b8d0 98bd fbae 03bd 7cd7 953d
00000390: f0ee 2ebe 72f2 363d cdc4 8b3d 57ae 4e3d
000003a0: 193d f73d 0c4d 0d3e 726e 223c cfc6 8fbd
000003b0: b246 8dbd 0006 883d c0d4 7ebd 3241 0cbc
000003c0: c12b e9bc 82a6 07be c2ef 273d b75b c5bd
000003d0: b436 0e3c de91 3c3d 9aaf 61bd 8e64 a0bc
000003e0: 4a8b 49bd f30b 89bb 3a9d 883c f867 093e
000003f0: 4ccf f8bd b428 083e b143 303e 31fa 74bd
0.08394897 0.051630158 -0.095751055 0.074443966 -0.030089127 -0.12528512 -0.037009217 -0.024076648
0.088864595 -0.116378345 -0.0062879655 -0.08472636 0.08196249 -0.0955439 -0.06706173 -0.03653394
-0.07236298 -0.036748122 -0.1045879 -0.066270456 -5.9797334e-05 0.09249196 0.0246007 0.09523295
-0.068608806 -0.017695863 0.054863553 -0.0619986 -0.11841352 -0.12068699 -0.110422 0.028236208
-0.13436322 0.009547467 -0.13616753 -0.040842302 -0.036630724 -0.1259267 0.14548026 0.032631308
-0.06965216 0.1142474 0.09307524 -0.009739657 -0.015530036 0.09705025 -0.026207037 0.024795415
-0.017525109 0.053350713 0.05633571 0.12927559 -0.08760905 1.9316212e-07 0.018195987 0.03819006
0.08088709 0.104689114 -0.100329034 0.03329845 0.005133437 -0.015004699 -0.10818068 0.07564137
0.04832576 -0.10957806 0.121275626 0.092398606 -0.121911116 -0.045815587 -0.0983657 0.00013610267
-0.00760003 -0.1180594 -0.08092145 -0.0134892175 0.11894405 0.058824413 0.10865655 0.0050931205
-0.12729406 0.06659132 -0.0331549 0.021278167 0.14231151 -0.08496377 0.004249492 -0.107626535
-0.059944972 -0.010096252 0.035139 0.083682455 0.12339265 0.097085804 0.009112216 0.08903236
-0.04160746 -0.052951507 -0.05742484 -0.06580733 -0.019839086 -0.027303517 -0.07408224 0.026392503
0.043352094 -0.063531786 -0.14187782 -0.02611252 -0.0057702013 -0.0024955939 0.05591822 -0.049701285
-0.051652614 -0.06511396 -0.010672895 -0.09496818 0.11789493 -0.12216234 0.053505473 0.010444262
0.010161033 -0.047025777 0.071304284 0.032094236 -0.032349486 0.11268363 -0.12193372 -0.0048875804
-0.117612116 0.07156221 -0.100129366 0.019714817 -0.09163294 0.083526865 -0.021755291 0.04075425
0.11841718 0.024892248 0.06166439 0.07345002 -0.014504059 -0.010867484 -0.08984775 -0.10583373
0.046925973 0.029417483 0.0028223866 0.10704503 -0.10387732 0.09295358 0.049635194 -0.09413705
-0.0010238505 0.05624317 -0.12062318 0.04893237 -0.042600557 -0.04085503 -0.031244272 0.056703288
0.05805103 -0.11867497 -0.015027446 -0.124925524 0.05988844 -0.006810953 -0.009099149 -0.10570346
0.050268564 -0.08969322 -0.043904144 -0.109098874 0.090794034 0.0069529214 -0.0076615177 0.100653805
0.023835266 0.12501338 -0.08239311 0.002696355 -0.07112083 0.057099435 -0.10673856 -0.048360582
0.03206939 0.12096529 -0.05769887 -0.10718835 -0.06556724 -0.05232284 -0.0508156 0.10227749
-0.008996867 -0.04491386 0.0285978 -0.13723147 -0.044526573 -0.112849936 0.10840587 0.09573473
-0.068924434 0.025648909 -0.0016152604 -0.050033353 0.120364316 0.12643196 0.085062854 -0.11450189
0.042896878 0.066493064 0.054373834 -0.0800266 0.037968256 -0.05726028 0.014398898 -0.044059504
0.045827124 -0.07933365 0.08894213 -0.036954075 -0.027455049 0.043477748 0.07117259 0.053891033
0.05024256 -0.07461685 -0.032149296 0.07316491 -0.17083335 0.044664808 0.06824646 0.050459232
0.120722 0.13798922 0.0099140275 -0.070203416 -0.0689825 0.066417694 -0.062214613 -0.008560466
-0.028463246 -0.13247111 0.041000135 -0.09636634 0.008680034 0.046037547 -0.055099107 -0.019579198
-0.049205102 -0.0041823327 0.016676534 0.13418567 -0.12148914 0.13296777 0.17213322 -0.059808914

bias f4 [64]
00000000: a63b 953d c9af d93d f7c3 d3bd a1d6 e1bd
00000010: 0535 c8bd 294b b83d 534f 82bd 92bc 783d
00000020: 4e16 03bd 6261 a53d 5063 8cbb da86 16bd
00000030: 360d a33d 2ae6 f73d c7ef 53bd abd4 8e3d
00000040: af4a b8bd 8b47 bebd 041e 063c ad17 ed3d
00000050: 1b41 533c da11 c43d e66c 843d 64d6 a33d
00000060: eb3a 2b3d 7490 04be 3f09 a9bd bdac f3bd
00000070: d5cf 133d d4e5 1e3c 28a1 ec3c 4ecf f6bd
00000080: fac5 ef3c 609b 84bd 3587 d9bd af44 e53c
00000090: ebc9 82ba 9bf5 a6bd 8995 203b ddc2 653d
000000a0: b7e1 04be c159 0fbb 4677 db3d 49ff e13d
000000b0: 9515 3abd 58da 1fbd 4006 75bd 2e9f cdbd
000000c0: 5a2e 4fbd 9980 8b3d ea6a c93d 1571 c0bc
000000d0: 56d5 bf3c 1890 a5bd 7429 27bc 02bd b53d
000000e0: c520 983d 5771 63bc d62e c0bd d5f5 cd3b
000000f0: 00d5 49bd 4edf 823c 5cb5 023e bdd6 a8bb
0.07286768 0.106292315 -0.10340112 -0.11027265 -0.09775738 0.08998711 -0.06362786 0.06072671
-0.032003693 0.08075215 -0.0042843 -0.0367497 0.07961504 0.12104447 -0.05174234 0.06974157
-0.0899862 -0.092909895 0.008185867 0.115767814 0.01289394 0.095737174 0.06466083 0.07999876
0.041804235 -0.1294573 -0.08253717 -0.118981816 0.036086876 0.00969835 0.028885439 -0.12051259
0.029269207 -0.06474948 -0.10621492 0.027986852 -0.0009978389 -0.08152314 0.0024503192 0.05609404
-0.12976728 -0.0021873566 0.10716109 0.1103502 -0.04543074 -0.03902659 -0.059820414 -0.10040127
-0.050581314 0.068116374 0.09834845 -0.023491422 0.023417156 -0.08084124 -0.010202754 0.08873941
0.07428125 -0.013882003 -0.09383933 0.006285409 -0.0492754 0.01597562 0.12764496 -0.005152552

weight f4 [8, 64]
00000000: 09ab 99bc 527d 02bc 9b71 95bc 6b0c bf3c
00000010: 973d 65bc 8ed2 cdbd 3576 043e 663b 87bd
00000020: 8e9e 083e d060 a8bc ae76 df3b 2922 a43d
00000030: 055d 92bd 0b50 4f3b 68ea 7dbd ac4a afbd
00000040: f567 ca3d 240d ce3d d304 803d b26e 173e
00000050: 3063 b63d 4f5d e23d 8f05 73bc ea76 f33d
00000060: a532 1d3d f039 3ebc c8f5 d83d c653 f9bd
00000070: 5e24 c9bc 72c2 9abd 66d2 063e db27 92bc
00000080: 35cf 863d 3d36 f33d 27d1 403d a780 a0bd
00000090: 4578 7fbc beb8 8a3d 2277 87bd 8aa7 1d3b
000000a0: 7b96 dcbd 93df 9a3c 9281 c03d 2a3d 063c
000000b0: f693 683c 48ff f33d 0213 bcbb fa90 97bd
000000c0: 97dd b03d eba8 aabd 4787 993d 163f a43d
000000d0: 92bb febc 98dd 15be a683 a93d cea3 d13d
000000e0: 97a3 14bd f534 fa3d cec7 153d b1f7 2c3d
000000f0: d6c1 0c3e 9888 52bd 8851 f93c 6400 e5bd
00000100: 5093 f83d 0601 393d f788 da3d 54f6 f9bd
00000110: aa7f 023e 66fc a63d e5ab 0b3e 2d1b f0bc
00000120: 31d3 f9bd adb8 99bc fe8d fc3d 50e2 173e
00000130: b856 27bc 061f f23b b6ed 06bd 55a2 43bc
00000140: 24e5 cb3a 864d 473d ec0e 39bd cda7 c9bd
00000150: 0f4d 1a3c f4d2 e43d 0631 c1bd 6d19 053e
00000160: e856 0f3d 6679 4b3d 6039 9e3d 2d87 ab3d
00000170: 1436 073e bc06 56bd 7a67 db3c 3883 ad3d
00000180: 934b 29be c0df d33d 03ba 16be d404 d9bd
00000190: 8988 d0bd 27cc b6bd 1be1 cdbd 1227 b03d
000001a0: 2852 01be f54f 00be 8a89 04be f126 31bd
000001b0: e81c d0bc 0d74 833d f304 92bd 905a e33c
000001c0: 03ce 833d ccb4 8f3d 62d4 c9bc 3433 abbd
000001d0: 7e7c 963d 6363 1fbd 68e7 07be f2d2 19bd
000001e0: 8e76 91bc 1566 393d cb23 f43d f88e f73d
000001f0: d82b 64bd 48cf fc3d 7fa3 6f3d d764 3e3d
00000200: fbb2 d6bd cbed d8bc 9bfb 253d c196 87bd
00000210: 00b4 8f3d 12f0 953d 3665 acbd 0b64 053e
00000220: 8a0b be3c b6b5 ca3c a058 babc 12a0 f5bc
00000230: c4ab 81bc 9402 b4bc c4d9 0c3d 42e4 6cbd
00000240: 2533 e23d 5d7f 57bd d7b8 02be 43d3 f33d
00000250: df18 8a3d 8472 9abd c144 e23d 38c3 0ebe
00000260: 30e4 b3bd 0a47 a4bd bc9a 8e3c 89ae 0c3c
00000270: 1fda 65bd f1dc 85bd 8136 abbd f6a6 f33d
00000280: 80ed 603d 7a72 d23c cb0e 5c3c 1d07 bc3b
00000290: 3dd5 8fbd ff17 8dbd 508f eb3d 8334 35bd
000002a0: 3750 b1bd 1d75 3cbd b793 203d 44fe ebbd
000002b0: 0e62 1e3d 2972 69bb 845d 6dbd 72cf e83c
000002c0: 0b61 8bbc da79 13be 700b 973d e0e8 bc3d
000002d0: ab26 9abd b940 eb3c 95f6 8dbd 453e f93d
000002e0: b67f 30bd c46d 4d3d 4434 403d 77fa 2fbc
000002f0: bc2d b5bd cbe3 973d e2c8 f23c db44 53bd
00000300: 19f2 e7bc 01a0 4e3d af2d cfbd bf15 663c
00000310: 1ebf 9e3c 3e44 e3bd 26f2 a33b 0731 dcbd
00000320: d8b0 c1bd c64e fe3d a1d4 383d 2567 c63d
00000330: 712a eb3d 2931 73bd 3b7c 9ebc 1a50 d0bb
00000340: 410a 2d3d c3fd d63c 3f80 bdbb 7794 0b3e
00000350: 3a66 6fbd 1e44 4f3d 2655 6d3d dc5a a4bd
00000360: c19e 893d efeb ae3d f2b3 24bd 45b8 b4bd
00000370: 85f7 903d 28a1 aa3d b667 533d 6b13 243c
00000380: 51c1 493d 5909 113c 7b16 19bd a787 8dbd
00000390: 250e 46bd 345b 163d 815f 37bd 8edf 503d
000003a0: b217 4fbd 56d0 a5bd 0436 a53d 338f acbd
000003b0: 0235 693d 0b7b d43d aa91 b93c 07da c13d
000003c0: a7d6 62bc 5252 d8bd 5703 94bd 5c16 ecbc
000003d0: 4423 a3bd 5290 90bd b73e 8e3d ccf1 073e
000003e0: 7cc8 e13d 16f4 fc3c 8a8b d8bd 1f0b 32bd
000003f0: 86ea 813d 3ca0 ed3d 4514 6dbd 3f8a 8f3d
-0.018758314 -0.007964449 -0.018242648 0.023321351 -0.013991735 -0.10049926 0.12935717 -0.06603126
0.13341734 -0.020553976 0.0068195676 0.08014328 -0.07146648 0.0031633403 -0.061991125 -0.085591644
0.098831095 0.100611 0.0625092 0.1478832 0.08905637 0.110529535 -0.014832868 0.118879154
0.038378377 -0.011610493 0.10593754 -0.12174182 -0.024553474 -0.07556619 0.13166198 -0.01784127
0.0658249 0.118755795 0.047074463 -0.078370385 -0.015592639 0.06773518 -0.0661452 0.002405616
-0.10770889 0.018905437 0.093997136 0.008193294 0.014195433 0.119139254 -0.0057395706 -0.07400699
0.08636015 -0.08333 0.07496505 0.08019845 -0.0310953 -0.14635313 0.08277063 0.102363214
-0.036288824 0.12217132 0.0365675 0.042228404 0.13745818 -0.051399797 0.030434385 -0.11181715
0.12137473 0.04516699 0.10670655 -0.122051865 0.12744012 0.0815361 0.13639791 -0.029309833
-0.12198485 -0.018764818 0.1233177 0.14832425 -0.010213546 0.007388952 -0.032941543 -0.011940558
0.001555596 0.048657916 -0.045180246 -0.098464586 0.009417786 0.111730486 -0.094331786 0.1299798
0.03499499 0.04967632 0.07725787 0.08375392 0.13204223 -0.052252516 0.02678274 0.084722936
-0.16532736 0.10345411 -0.14719395 -0.10596624 -0.10182292 -0.08925658 -0.10052701 0.08601202
-0.12628996 -0.12530501 -0.12943092 -0.043250028 -0.025404409 0.06418619 -0.0712985 0.027753145
0.06435778 0.07016906 -0.024637405 -0.083593756 0.07347964 -0.038913142 -0.13271868 -0.03755469
-0.017756727 0.04526337 0.119208895 0.12087816 -0.055705875 0.12344223 0.05850553 0.046482887
-0.104833566 -0.026480576 0.040523153 -0.06620551 0.07016754 0.073211804 -0.08417742 0.13026445
0.023198862 0.02474485 -0.022747338 -0.029983554 -0.015828975 -0.021973886 0.034387365 -0.05783487
0.11044911 -0.052611697 -0.12765823 0.11905529 0.06743025 -0.07541373 0.1104827 -0.13941658
-0.08783758 -0.08021362 0.017407767 0.008586534 -0.05611622 -0.06536282 -0.08360005 0.1189708
0.054913998 0.025689352 0.013431261 0.0057381527 -0.07023094 -0.068893425 0.11501944 -0.044239532
-0.08657878 -0.046010125 0.03920337 -0.11523107 0.03866773 -0.0035621023 -0.05795051 0.02841923
-0.017014047 -0.14401951 0.073752284 0.09224105 -0.075269066 0.028717386 -0.069317974 0.1217008
-0.043090545 0.05015351 0.046924844 -0.010740868 -0.08846614 0.07416495 0.029636804 -0.051579338
-0.028313683 0.05044556 -0.10116135 0.014043271 0.019378241 -0.110970005 0.0050032316 -0.10751539
-0.094575584 0.124173686 0.045124654 0.09687642 0.114827044 -0.059373055 -0.019346347 -0.006357205
0.042246107 0.02624405 -0.0057831104 0.13630854 -0.0584471 0.05060207 0.057942532 -0.080251426
0.06719733 0.085410945 -0.04021067 -0.08824209 0.070784606 0.08331519 0.05161258 0.010014395
0.049256627 0.008852326 -0.037374955 -0.06910639 -0.048353333 0.03670807 -0.044768814 0.05099445
-0.050559707 -0.080963776 0.08066943 -0.084257506 0.056935318 0.10375031 0.022652466 0.094654135
-0.013845122 -0.10562576 -0.072271995 -0.028819256 -0.07965711 -0.07058777 0.06945556 0.13275832
0.110245675 0.030878108 -0.1057349 -0.043467637 0.0634356 0.11602828 -0.05788066 0.0700879

bias f4 [8]
00000000: 7663 c3bd adb1 3fbd 775d 02bc be76 06be
00000010: 1c83 b6bd a883 473d 8aca e4bd 3144 933d
-0.09540455 -0.046800304 -0.007956854 -0.13131234 -0.08911726 0.04870954 -0.11171444 0.07190741

weight f4 [64, 103]
00000000: c4bf b93d ddf2 14bb f798 93bc 9b02 f03c
00000010: 477c 03bd 789d c13d b3fc 61bd 0ceb 98bd
00000020: f732 28bd b590 38bc 4fba 6bbd cbc2 cbbc
00000030: dad8 f9bc 2037 573e 42c9 31bd 4afa 113c
00000040: 0256 82bb 4f4c 24bc 16be 93bd ed6a 153d
00000050: bc52 823d 2daf 0bbb 96ac bdbc 2bc4 0e3d
00000060: 79e2 6d3b f34f 47bc 745f e23c 7b17 4d3d
00000070: 8ab5 3c3d a435 55bd 1a4f ca3c 69b0 29bd
00000080: 06f7 9f3c 79dc 0ebe f208 03bb 0026 da3c
00000090: 048b 7bbb 9314 a9bd eed7 91bd c30e f9bc
000000a0: 6437 75bd 5f8f bebd 4e7c 9bbd e7ab 2abd
000000b0: 5a0d 7fbd 5eea 423d 28a3 273d a52c c3bd
000000c0: a606 d3bb ac9d 15bc 26b9 923a 0f85 473d
000000d0: 0cd0 23bd f2ea 0c3e e09b 5e3d c4c0 c4bd
000000e0: 37d3 8b3c f97a 3e3d 6550 bebb 63dc eb3c
000000f0: e602 06bc 63a3 4d3d 2caf 8dbd 631c 453c
00000100: 02ed be3d 78ea 6e3d 55ad bfbd 6999 4f3d
00000110: 79d2 4e3c 9459 f0bc 338d 803d 3dbf 7e3d
00000120: f4a2 583d 515b ecbd 01d3 e7bd 7962 593d
00000130: e4bb 643d 2dd3 bdbd 2255 1b3d 2735 273d
00000140: e8bc 9d3c 7464 aebd 7c54 8f3c fb9d f13d
00000150: 4491 c0bd 275a 6f3d f34e 24bd b47c d8bd
00000160: c685 3b3c 2fc9 bd3d 5343 453d 740d b43b
00000170: 2745 993c 18b9 d13c 473e 523d 6a24 f2bc
00000180: 39ea 9abd 3616 74bd 7073 50ba 2424 5abc
00000190: 13fe d73c ec74 08be 64ce c83c 44cb d8bc
000001a0: 5704 983d acde bfbd 2aa0 3abd 19fb 87bd
000001b0: 893c c5bd 2aee 263d ca4b b03d 09e9 12bd
000001c0: 7cc9 0cbd 930c 36bd c93e b3bd fd34 913d
000001d0: 0686 afbd 7a4c 04bc d46a 323d be66 26bb
000001e0: 7b5e f0bc 9516 a3bd d2a2 18bd e18d 593d
000001f0: 9dc1 253d f2b6 413d 1e49 85bd 7f5e c2bd
00000200: 9a40 8fbc f25b b2bd b5f7 973c e96b 3b3d
00000210: 0b47 383d 9272 9cbd 136d b53c c5db 783d
00000220: f223 df3d f5df bd3d 44ce 633d 04a2 8abd
00000230: c9fd b83c 9e49 aa3d 1d3a 05bd 9d00 0b3d
00000240: 721c 333c c0c3 1d3d 2702 50bc 7c75 99bd
00000250: 59e9 513c 5fc4 4f3d 6b3a 01bd 5e9e 0e3d
00000260: 5f64 043b d807 51bd 9966 82bd 525d 50bd
00000270: b78c eb3c f6ce 063c 3bd4 2c3d fa2a af3c
00000280: d121 50bd 3b72 b23a 7097 13bb 3b8c 053d
00000290: 23a2 b7bd 98f5 39bd 2ae9 7c3d d8fc b2bd
000002a0: c98a 903c f962 5f3d 3d8a 283d fe2a 233d
000002b0: ca5c 0a3d d013 40bd 8e02 693c 9bef 433d
000002c0: 5f09 11bd 674f fb3d c813 c2bd b602 283d
000002d0: 49a5 c53c 3fb4 383d c2a9 703d 1c67 29bd
000002e0: 5d0e 073e ada1 a4bb 5bc6 ff3c 14b1 80bd
000002f0: 270c 9ebc 70f6 a93d ce2c 15be b473 4f3c
00000300: 36df 68bc 15d8 0e3e 2127 573d d396 e83c
00000310: 9976 033e 6c72 36bc 932d 233d 206d cb3c
00000320: f736 b23d ec3b d4bc 4159 1ebd 46af b43c
00000330: 8b41 a5bd a3da c7bc 9cd2 4fbc df09 c63d
00000340: 648d 6d3c 7c34 9f3d 25e2 b6bc 1650 3bbc
00000350: 53d3 8e3d 0d66 b2bd 353f 53bb 87b6 9dbd
00000360: 4c14 60bd 365f 933d 4f9f 4e3d 5edb 1b3a
00000370: 328b 243d fa7d 753d 3c13 6cbd 3353 373d
00000380: e8d6 a5bd 3632 96bc ea1a 803c fa89 f7bb
00000390: 5db8 33bd c88f 8abd d6b8 c7bc a4be 5abd
000003a0: 1c93 88bd cd1e e13c 3ba7 fa3c 15ff a0bd
000003b0: 6227 25bd 0efa 66bd 22ee 2dbd a0ec 68bc
000003c0: ad20 71bd bf4d c43d 5259 f13c 3a71 1c3d
000003d0: 4160 e33c 062c 85bd 33a0 0bbb 8eb8 aebd
000003e0: b308 5abd 4d4e 2d3d fe9c 9cbd 5bdc b03d
000003f0: f6cc 293d e6e7 ca3b 3ada 373b a940 0bbd
0.090697795 -0.0022727766 -0.018017275 0.029298117 -0.032100942 0.09453863 -0.055172633 -0.07466707
-0.04106423 -0.01126497 -0.057550725 -0.024873158 -0.03049891 0.21017122 -0.043404825 0.008909771
-0.003977538 -0.010027959 -0.072139904 0.036478925 0.063634366 -0.002131413 -0.023153584 0.03485505
0.0036298318 -0.0121650575 0.027633406 0.05007122 0.046071567 -0.05205311 0.024695922 -0.041428003
0.01952697 -0.13951291 -0.0019994345 0.026629448 -0.003838242 -0.08255877 -0.071212634 -0.030402547
-0.059867278 -0.093046896 -0.075920686 -0.041667845 -0.062268592 0.04758679 0.040927082 -0.0953
-0.0064400015 -0.00913183 0.0011194095 0.04871088 -0.03999333 0.137615 0.054347873 -0.096070796
0.017068489 0.046503995 -0.0058079236 0.028791612 -0.008179402 0.050204646 -0.06918177 0.012030694
0.093225494 0.058329076 -0.09359232 0.050683413 0.012623423 -0.02933959 0.062769316 0.062194098
0.05288978 -0.11540855 -0.11319543 0.053072426 0.05584325 -0.09268794 0.037922986 0.040822174
0.019255117 -0.08515254 0.01749634 0.117977105 -0.09402707 0.058435585 -0.040114354 -0.1057066
0.011445468 0.09266888 0.04815991 0.005494768 0.018709732 0.025600955 0.051328924 -0.02955838
-0.07564206 -0.059591495 -0.0007951772 -0.013314281 0.02636627 -0.13325852 0.024512477 -0.026464112
0.07422703 -0.09368643 -0.0455629 -0.0663969 -0.09630687 0.040754475 0.086082056 -0.03586677
-0.034371838 -0.044445585 -0.0875221 0.07090185 -0.08570485 -0.008074874 0.04355891 -0.002539083
-0.029341927 -0.079632916 -0.037264653 0.053113822 0.040467847 0.04729361 -0.065080866 -0.0949068
-0.01748686 -0.087089434 0.018550733 0.045757208 0.044989627 -0.0763904 0.022146737 0.060756464
0.10895528 0.09271232 0.055616632 -0.06769183 0.022581952 0.083148226 -0.032526124 0.03393613
0.010932075 0.03851676 -0.012695826 -0.074931115 0.012811982 0.050724383 -0.031549852 0.034819
0.0020201427 -0.05103287 -0.06367225 -0.050870247 0.028753622 0.008228054 0.042194586 0.021382798
-0.0508135 0.0013614366 -0.0022520684 0.032604437 -0.08966472 -0.045400232 0.0617458 -0.08739632
0.017644303 0.054537747 0.04114746 0.039835922 0.033779897 -0.046893895 0.0142218005 0.047835927
-0.035409328 0.12271004 -0.09476429 0.04101821 0.024126666 0.04509377 0.058755644 -0.0413581
0.13189073 -0.005024156 0.031222513 -0.06283775 -0.019292904 0.08298957 -0.14567873 0.012661863
-0.014213374 0.13949616 0.05252755 0.028392231 0.1283821 -0.011135679 0.039838385 0.024832308
0.0870189 -0.02590748 -0.038659338 0.022056233 -0.08069142 -0.024396246 -0.0126844905 0.096698515
0.014499042 0.077736825 -0.022324631 -0.011432668 0.06973901 -0.08710871 -0.003223372 -0.0770083
-0.054706857 0.071958944 0.050444897 0.0005945469 0.04017181 0.059934594 -0.05763553 0.04475708
-0.08097631 -0.01833449 0.015637834 -0.00755429 -0.043876994 -0.06765705 -0.024380129 -0.053404465
-0.06668684 0.027480507 0.03059732 -0.07861153 -0.04032076 -0.056390814 -0.04246343 -0.014216572
-0.058869053 0.095851414 0.029461537 0.03819392 0.027755858 -0.065025374 -0.0021305203 -0.08531295
-0.053230952 0.042311 -0.076471314 0.086357795 0.04145523 0.006192195 0.0028053657 -0.03399721

bias f4 [64]
00000000: bad4 b23d 4e33 693d 83d8 003e ea13 323d
00000010: 25db d6bc fd15 e3bd 03f8 9ebc 386a b03b
00000020: 1452 463d 3bdd 8c3b 5a12 97bc 5455 893c
00000030: 1754 cebd 0bcd 99bd a624 0cbe 0526 d13d
00000040: 7da5 e5bc 39ec 4f3d 12f7 bdbd f731 c03c
00000050: 6910 17bc bcfe 6e3c b0b0 5bbd 57fc 58bd
00000060: 6600 b23c d9ed c1bd 32fe 9ebd 04a2 a13c
00000070: 18e8 fdbc 46c6 2a3d 9143 0bbd e0a8 b2bd
00000080: 1ee4 85bc b150 b1bd cc93 0abd 8f17 85bd
00000090: 61e6 c53d 75df 5abd 8a4d c7bd edf8 733d
000000a0: 7adf cd3c a024 a73d 601b 9b3d 4fc5 7d3d
000000b0: 63b8 e0b8 7748 8b3d c15e 61bc 8fdf df3c
000000c0: 2d0a 903d 8135 cd3c 80f4 a23b 20f0 853c
000000d0: 0ee5 8d3d 28f6 55bd eb5e 93bc 95db c53c
000000e0: ee0f 793d d3bf b6bd e8f3 14bd 6044 bb3d
000000f0: 2f57 063e 6d8f 8f3c cc02 94bd 3ad4 cdbd
0.087319806 0.056933694 0.12582593 0.043476023 -0.026227543 -0.11088178 -0.01940537 0.005383756
0.04841812 0.0042988337 -0.018441368 0.01676432 -0.100746326 -0.07509812 -0.13685855 0.1021233
-0.028033013 0.05076239 -0.092756405 0.023461325 -0.009220221 0.014587101 -0.0536353 -0.052975025
0.021728706 -0.09469194 -0.07763328 0.019730575 -0.03099446 0.041692995 -0.033999983 -0.087236166
-0.016344126 -0.08657969 -0.033832356 -0.06498634 0.09663082 -0.05343576 -0.09731586 0.059563566
0.025130976 0.081612825 0.07573581 0.061955746 -0.00010715497 0.06800931 -0.013755501 0.02732828
0.07033191 0.025049927 0.0049729943 0.016349852 0.06928454 -0.052236706 -0.017989596 0.024152556
0.060806207 -0.08923306 -0.03636542 0.09143901 0.13119195 0.017524445 -0.07227096 -0.10050245
